CNN Pruning/CNN_pruned.pth (torch, 181282 bytes, 10 tensors)

conv1.weight f4 [6, 1, 5, 5]
-0.3207075 -0.067205295 0.24580874 0.105524585 0.18299712 -0.3783204 0.28637204 0.28406984
-0.058603536 0.23568952 0.17555456 -0.0016665083 0.09130298 -0.0105227465 0.06955302 -0.14884949
0.20369895 -0.059320558 0.046199586 0.25060794 0.048069946 -0.0742052 0.31055447 0.18923253
-0.023868334 0.073315464 0.3249992 -0.4274368 -0.028845368 0.07950744 0.3136367 0.21961679
-0.5520385 -0.10766648 0.05809411 0.22331981 0.39710066 -0.3388638 -0.23830223 -0.055202957
-0.27705327 0.42900792 0.15951386 -0.4332032 0.16346136 -0.10682675 0.30448815 -0.23187138
-0.024394086 0.08370772 0.05743624 -0.10094801 0.44655672 0.11110025 -0.032291252 0.21438475
-0.4352912 0.44656858 0.1262045 0.09575694 0.05327336 -0.41515306 0.23108284 0.19168304
0.30034706 0.26581094 -0.5391623 -0.09597596 -0.13404836 -0.32476097 0.2571248 -0.65144694
-0.08330148 -0.14440928 -0.005309882 -0.0008843596 0.043180257 0.18966825 0.035449177 -0.4328237
-0.047247276 -0.12927586 0.24909602 0.08577696 -0.3187168 -0.016451115 0.4365247 0.14157586
-0.18014856 -0.32217944 0.075126074 0.26938894 0.33263 -0.09518715 -0.42621112 0.02763292
0.2147531 0.30084658 -0.12987687 -0.2783572 -0.23790619 -0.29626885 -0.5099143 -0.45348212
-0.044620167 0.08163502 -0.33011696 -0.80538434 -0.81770843 -0.24730414 0.07246894 0.014594272
0.13065173 -0.15626639 -0.07607212 0.095444195 0.110938914 0.04078158 -0.01286727 -0.09408475
0.1435114 0.025828505 0.04282385 -0.06820378 -0.14238478 0.101943776 0.27703008 0.08910351
-0.027665615 0.08400951 0.003979554 0.2282386 -0.19504455 -0.21631442 0.24814112 -0.115893155
-0.072365604 0.28796458 -0.14186527 0.024691567 -0.26665238 -0.2501628 -0.1328057 0.21538775
0.26328662 -0.016556848 -0.13940199 0.076685905 -0.40693092 0.2879593
00000000: c633 a4be eea2 89bd 49b5 7b3e 461d d83d
00000010: 9963 3b3e 36b3 c1be 5b9f 923e 9a71 913e
00000020: 430a 70bd 9858 713e 93c4 333e bd6e daba
00000030: 0ffd ba3d 9967 2cbc d071 8e3d 006c 18be
00000040: 7596 503e 1dfa 72bd c73b 3d3d af4f 803e
00000050: fee4 443d e5f8 97bd ff00 9f3e 2cc6 413e
00000060: 8687 c3bc 6b26 963d 4c66 a63e ffd8 dabe
00000070: 1f4d ecbc ccd4 a23d fd94 a03e 39e3 603e
00000080: 6552 0dbf 3e80 dcbd 17f4 6d3d f3ad 643e
00000090: c750 cb3e 8e7f adbe 8005 74be 7f1c 62bd
000000a0: edd9 8dbe eda6 db3e 9a57 233e cfcc ddbe
000000b0: 6a62 273e fcc7 dabd dfe5 9b3e b16f 6dbe
000000c0: 1bd6 c7bc f46e ab3d 4342 6b3d d5bd cebd
000000d0: 15a3 e43e 8788 e33d d543 04bd ad87 5b3e
000000e0: 7dde debe a3a4 e43e c13b 013e 371c c43d
000000f0: 2b35 5a3d f18e d4be fba0 6c3e 8f48 443e
00000100: 17c7 993e 5f18 883e 8a06 0abf 0b8f c4bd
00000110: f943 09be 1247 a6be dda5 833e 3ac5 26bf
00000120: f799 aabd 07e0 13be 85fe adbb 5ed4 67ba
00000130: c8dd 303d 6538 423e 2833 113d 119b ddbe
00000140: 5c86 41bd e460 04be 0713 7f3e d5ab af3d
00000150: d92e a3be 7dc4 86bc 2a80 df3e 43f9 103e
00000160: dd78 38be b4f4 a4be b3db 993d 59ed 893e
00000170: 7b4e aa3e 7bf1 c2bd 5838 dabe 6f5e e23c
00000180: 3de8 5b3e 9008 9a3e 71fe 04be d684 8ebe
00000190: ae9d 73be 8db0 97be be89 02bf cf2e e8be
000001a0: a3c3 36bd 4330 a73d 1705 a9be ab2d 4ebf
000001b0: 5755 51bf 4c3d 7dbe 986a 943d d01c 6f3c
000001c0: 91c9 053e 4c04 20be b3cb 9bbd 3f78 c33d
000001d0: f133 e33d 960a 273d 3ed1 52bc 81af c0bd
000001e0: a7f4 123e 4d96 d33c 1068 2f3d 6cae 8bbd
000001f0: 51cd 11be e6c7 d03d e3d6 8d3e e77b b63d
00000200: 00a3 e2bc 2e0d ac3d eb66 823b 61b7 693e
00000210: c2b9 47be 8781 5dbe b518 7e3e 6459 edbd
00000220: 6b34 94bd 1870 933e 2145 11be f845 ca3c
00000230: a986 88be 5715 80be 38fe 07be 9b8e 5c3e
00000240: 81cd 863e 3aa2 87bc 65bf 0ebe 800d 9d3d
00000250: 4059 d0be 676f 933e

conv1.bias f4 [6]
-0.18124168 0.009749152 0.14167316 0.055449117 -1.2602015 0.13430686
00000000: 6b97 39be e8ba 1f3c c512 113e 9d1e 633d
00000010: 484e a1bf bd87 093e

conv2.weight f4 [16, 6, 5, 5]
-0.1587389 -0.036396448 -0.05266685 0.03344913 -0.05971302 -0.14086218 -0.16313678 -0.13880463
0.012809184 0.0240832 -0.13927054 -0.115336746 -0.14842984 -0.12309128 0.037610006 -0.023813259
-0.03474136 -0.114887685 -0.1534251 0.049576376 -0.037621748 -0.041573513 -0.10771303 -0.095357396
-0.056680337 -0.018311752 -0.01120463 -0.07446891 -0.048438866 0.010066811 -0.063679084 -0.11471386
-0.13079108 0.046243697 0.009597255 -0.10775911 -0.08150218 -0.04316446 0.015735267 0.040818363
-0.12781134 -0.13247906 -0.0021401937 0.04278147 0.07574524 -0.1805767 -0.08176073 -0.05579173
-0.035299625 -0.05226071 -0.11599826 -0.12914008 -0.11452588 0.03793714 -0.14012222 -0.12857495
-0.04566958 -0.08626827 0.16356172 0.09414205 -0.09404166 -0.17451605 -0.16760875 0.11579803
0.1433342 -0.07570548 -0.16954748 -0.10301316 -0.039235905 -0.046008762 -0.16937514 -0.02403359
-0.043977823 0.03262341 -0.012219651 -0.12498965 -0.12762111 -0.2071412 -0.029210338 0.19419648
-0.018921237 -0.080953635 -0.067642465 -0.05783348 0.120945096 -0.07349005 -0.08569447 0.0395085
0.038904537 0.13058582 -0.04996873 -0.09971911 0.22906625 -0.04170645 0.17263308 -0.14842004
0.039113495 0.22376697 -0.11420291 0.21746178 -0.120738514 -0.033494294 -0.10214041 -0.04555562
0.06393054 0.04851082 -0.04505678 -0.069432154 -0.23331875 -0.102794304 0.066161916 0.013953893
-0.11705328 -0.14394683 0.09090661 -0.002660821 0.0127776265 0.096776634 0.24192473 0.4528849
0.04852801 0.004761773 0.14623874 0.14837581 0.39992154 -0.010269949 -0.1434107 -0.0054134578
0.023329286 -0.12174711 -0.14159414 -0.1449528 -0.071525715 -0.07401628 -0.023888303 -0.055823717
0.021612298 0.0657251 0.0870526 0.021342402 0.010809758 -0.013826379 -0.084038116 -0.05788392
0.01995894 -0.14805515 -0.16386029 -0.026147775 -0.08282755 -0.12773392 -0.0035470827 0.020023512
-0.052271828 0.0041190246 -0.008098454 0.061822318 0.03610697 -0.08766473 0.025333622 -0.04450626
0.06864252 0.06844108 -0.106759354 -0.06425053 0.095763184 0.06880141 0.07247058 0.037981827
0.0789931 0.06505339 -0.013446948 0.03264086 0.059799936 -0.052298315 -0.0861101 0.0006896227
0.0004477281 -0.1134612 -0.13260117 -0.12248034 0.1483767 0.10671292 0.01964266 -0.042513914
-0.1634695 0.094768986 0.0073278937 0.008924801 0.051096674 -0.17240715 0.084633805 0.011264597
-0.0010059233 0.09517862 0.002242672 -0.05177128 0.07097566 -0.041312944 -0.0066182534 0.034013007
0.106234856 0.068588704 0.005725585 0.027113944 -0.12682016 -0.025006 0.09928665 0.100611776
0.06023233 0.072306804 0.033449326 0.056904923 0.013791938 0.017555822 -0.009203642 -0.023176638
0.08568977 -0.0027642269 -0.11971188 -0.046444114 -0.021117149 0.07578112 0.02968243 -0.08801183
-0.10345323 -0.102118224 0.033547465 -0.12848404 -0.26977244 0.054636117 -0.037690062 0.024503672
0.047584802 -0.0077474406 -0.1493347 -0.010317611 0.0071061924 0.2149515 0.07665215 -0.16222581
-0.04143049 -0.21198343 0.14966214 0.16009556 -0.1416234 0.050656077 -0.13376157 -0.0020341345
0.17852321 -0.12634636 -0.11758357 0.020578602 0.03781905 -0.1337235 -0.3109276 0.062105086
00000000: 738c 22be 7114 15bd 32b9 57bd f401 093d
00000010: a495 74bd 2d3e 10be 540d 27be cd22 0ebe
00000020: 9ddd 513c 224a c53c f09c 0ebe ac35 ecbd
00000030: fefd 17be 4817 fcbd f30c 1a3d 0614 c3bc
00000040: f54c 0ebd 3c4a ebbd 781b 1dbe 9910 4b3d
00000050: 4319 1abd fd48 2abd a698 dcbd bd4a c3bd
00000060: a429 68bd 8702 96bc a093 37bc 2883 98bd
00000070: d567 46bd 44ef 243c 2e6a 82bd 1aef eabd
00000080: 19ee 05be 086a 3d3d ce3d 1d3c cfb0 dcbd
00000090: 9dea a6bd 38cd 30bd 3fe7 803c 2831 273d
000000a0: fae0 02be 97a8 07be 7e42 0cbb 9f3b 2f3d
000000b0: 5220 9b3d 19e9 38be 2b72 a7bd de85 64bd
000000c0: 5796 10bd 540f 56bd 7f90 edbd 4c3d 04be
000000d0: 8b8c eabd f963 1b3d 337c 0fbe 27a9 03be
000000e0: 0710 3bbd 6bad b0bd b97c 273e 8ccd c03d
000000f0: ea98 c0bd 56b4 32be a1a1 2bbe 8427 ed3d
00000100: 33c6 123e 7a0b 9bbd db9d 2dbe 90f8 d2bd
00000110: d4b5 20bd af73 3cbd ad70 2dbe 17e2 c4bc
00000120: 1722 34bd 20a0 053d ee34 48bc 93fa ffbd
00000130: 1caf 02be d31c 54be 854a efbc 71db 463e
00000140: b600 9bbc 05cb a5bd 2288 8abd cde2 6cbd
00000150: 10b2 f73d f481 96bd 9580 afbd aad3 213d
00000160: 5d5a 1f3d 4ab8 053e 03ac 4cbd 8839 ccbd
00000170: 5890 6a3e 62d4 2abd bac6 303e 6cfb 17be
00000180: 7935 203d 2b23 653e 37e3 e9bd 4dae 5e3e
00000190: c145 f7bd 5031 09bd fe2e d1bd 8898 3abd
000001a0: 04ee 823d 48b3 463d 758d 38bd 7232 8ebd
000001b0: 1ceb 6ebe d285 d2bd e67f 873d df9e 643c
000001c0: a1b9 efbd cc66 13be 3f2d ba3d 2b61 2ebb
000001d0: 4059 513c d432 c63d 1ebb 773e 88e0 e73e
000001e0: 4ec5 463d a608 9c3b 9cbf 153e d4ef 173e
000001f0: 84c2 cc3e 4a43 28bc 41da 12be 6063 b1bb
00000200: 0f1d bf3c 8c56 f9bd 0efe 10be 826e 14be
00000210: 137c 92bd d995 97bd 67b1 c3bc 69a7 64bd
00000220: 460c b13c e29a 863d a248 b23d 43d6 ae3c
00000230: 691b 313c 0988 62bc 2d1c acbd b017 6dbd
00000240: ee80 a33c c59b 17be feca 27be dc33 d6bc
00000250: 7ea1 a9bd aecc 02be 2c76 68bb 5908 a43c
00000260: fc1a 56bd e2f8 863b 61af 04bc 6639 7d3d
00000270: e7e4 133d 9189 b3bd 7588 cf3c 324c 36bd
00000280: 7394 8c3d d62a 8c3d a6a4 dabd c895 83bd
00000290: 7d1f c43d c1e7 8c3d 756b 943d d592 1b3d
000002a0: 22c7 a13d b63a 853d 9650 5cbc 6cb2 053d
000002b0: c7f0 743d c236 56bd 7e5a b0bd ccc7 343a
000002c0: 0cbd ea39 585e e8bd 9ac8 07be f9d6 fabd
000002d0: 10f0 173e 4e8c da3d a5e9 a03c 1223 2ebd
000002e0: 8c64 27be 3e16 c23d d41e f03b 5439 123c
000002f0: bf4a 513d 808b 30be 7d54 ad3d 258f 383c
00000300: 2fd9 83ba 02ed c23d cbf9 123b 1f0e 54bd
00000310: b05b 913d c337 29bd efdd d8bb 3951 0b3d
00000320: a991 d93d 3c78 8c3d b09d bb3b 101e de3c
00000330: 25dd 01be 62d9 ccbc cd56 cb3d 8c0d ce3d
00000340: 2db6 763d 9715 943d 2902 093d 2315 693d
00000350: 95f7 613c 3ad1 8f3c dfca 16bc efdc bdbc
00000360: 1e7e af3d 0828 35bb 812b f5bd 2f3c 3ebd
00000370: dffd acbc 2233 9b3d 9128 f33c 8c3f b4bd
00000380: 49df d3bd 5c23 d1bd 1169 093d 5291 03be
00000390: 9d1f 8abe 1fca 5f3d e560 1abd edbb c83c
000003a0: 48e8 423d 3ede fdbb 32eb 18be 320b 29bc
000003b0: 10db e83b 3f1c 5c3e cdfb 9c3d 861e 26be
000003c0: 04b3 29bd 2f12 59be 0841 193e 17f0 233e
000003d0: b905 11be bf7c 4f3d cbf8 08be 1d4f 05bb
000003e0: cace 363e f160 01be a8cf f0bd 7594 a83c
000003f0: 26e8 1a3d d0ee 08be e731 9fbe e761 7e3d

conv2.bias f4 [16]
0.044221085 -0.052797616 -0.007190403 -0.080430366 0.06218472 -0.15224677 -0.021818148 0.035200503
-0.13445164 -0.16327183 -0.20466323 -0.05691992 0.042181928 -0.061863918 0.0777858 -0.017446423
00000000: 2b21 353d 5042 58bd 799d ebbb adb8 a4bd
00000010: 68b5 7e3d 94e6 1bbe f9bb b2bc 672e 103d
00000020: b1ad 09be bb30 27be 3d93 51be dd24 69bd
00000030: f5c6 2c3d 0565 7dbd 294e 9f3d cdeb 8ebc

fc1.weight f4 [120, 256]
-0.056662824 0.009306757 0.0035825977 -0.09330771 -0.07555115 -0.06273282 0.020829378 -0.00067285256
-0.057589 -0.044491526 -0.043186422 -0.021846708 0.01822944 0.05695992 0.036531284 0.047829915
-0.06492001 -0.07611309 0.030850349 -0.016534304 0.040810015 0.0381911 0.0130085265 5.1225372e-05
0.064307876 0.053845186 0.017202826 -0.07103252 -0.005337386 -0.01523424 0.059926756 -0.08832964
0.07462377 0.037285797 0.039260082 0.044895973 -0.015957378 -0.0034684923 0.0021508553 0.02564168
-0.03831475 0.054794855 -0.044766057 0.020750422 0.05714989 0.012088596 0.05484485 -0.053995624
0.0739197 -0.037333407 0.0033363588 0.023924297 -0.007902997 0.001678433 0.052178573 0.018935652
0.04852747 -0.048626613 0.055094063 -0.07139493 0.04998394 0.038449343 -0.017055202 -0.022949811
-0.015068766 -0.0533971 0.07612096 0.007256915 0.043232378 -0.023285506 -0.030927116 0.029460814
-0.027947405 0.01884289 0.053176235 0.07258128 -0.038930677 -0.03888254 0.052311018 0.060148247
0.017471455 0.008254675 0.012082772 -0.053646363 -0.06432446 -0.035318777 -0.050877526 0.08207853
-0.10160027 -0.037905436 -0.079069875 0.07920999 -0.07696313 0.014555849 -0.073499076 -0.0011757144
0.07482382 -0.0012439403 -0.044094313 -0.04063156 0.08783897 0.036899343 0.010406065 -0.011351597
0.057316367 -0.033134885 -0.08843844 -0.0037288908 0.016325194 0.018709766 0.018676545 0.061176702
0.01801856 0.05317813 -0.00896798 -0.058773536 0.0044961805 -0.008497543 0.013874213 0.047174048
0.05397029 -0.04001106 0.009509569 0.084799394 0.082623504 -0.027711434 0.016833374 -0.022793325
-0.07449751 -0.08285486 -0.031428874 -0.074945174 0.03755657 0.01222654 -0.033621468 -0.04875186
0.020989835 -0.016900038 -0.03593064 0.023022268 -0.045209084 -0.0013572738 -0.006427752 -0.060848705
-0.03674141 -0.06592337 -0.02158266 -0.056676645 0.053717684 -0.07467495 -0.02045664 -0.047544062
0.038899086 -0.07333617 -0.046338882 -0.11568665 0.049416006 0.0358466 0.045270476 -0.017752843
0.025643025 -0.023955783 0.014786169 0.013120533 -0.09389193 -0.055746518 -0.025662344 -0.033848673
0.04054634 0.0029536306 -0.025944527 2.6657258e-06 -0.0075946404 -0.050053805 0.04617705 -0.0019106971
-0.011063268 0.09920913 0.02300564 -0.046719506 0.046256565 -0.034856305 -0.071477994 -0.03822645
0.0252827 -0.0038194943 0.02093524 -0.012065173 0.007962749 0.06340686 -0.064200446 0.034928624
-0.058412872 -0.034553207 -0.045780152 -0.03756391 -0.04119029 -0.07355314 -0.0058731926 0.00013879577
-0.03457622 -0.062789924 -0.06872458 0.0011267142 0.10004424 -0.0483223 0.040825687 0.015358662
0.0049336297 0.053776804 -0.047190215 -0.003598422 0.03611762 0.039760344 0.05127646 0.05917939
0.052267443 0.0007147695 0.025743527 -0.055462036 0.019771554 0.0068393927 0.0096677905 0.010726241
-0.063911065 0.050300468 -0.08894136 -0.07546831 0.028848348 -0.04253342 -0.032010525 0.019236045
0.00659642 0.060549956 -0.074914195 0.019224245 -0.012831717 0.08364854 0.07957819 -0.012779069
0.029140549 -0.028446402 0.023749791 -0.059008516 -0.010857899 0.048388045 0.05803325 0.0002825079
-0.045703348 0.051022984 -0.014005132 0.01910467 -0.00055035314 0.035881624 0.06658064 -0.08461493
00000000: 4717 68bd 5e7b 183c 04ca 6a3b 1d18 bfbd
00000010: 90ba 9abd 117a 80bd 5fa2 aa3c 5f62 30ba
00000020: 71e2 6bbd bf3c 36bd 3fe4 30bd def7 b2bc
00000030: e855 953c ce4e 693d d4a1 153d 4de9 433d
00000040: c8f4 84bd 2ee1 9bbd dfb9 fc3c f372 87bc
00000050: 6728 273d 456e 1c3d b721 553c d3da 5638
00000060: d9b3 833d c58c 5c3d f1ec 8c3c 7f79 91bd
00000070: 3de5 aebb 0999 79bc c275 753d 2ce6 b4bd
00000080: 59d4 983d feb8 183d 2ecf 203d d7e4 373d
00000090: 0cb9 82bc a54f 63bb 5df5 0c3b 800e d23c
000000a0: edef 1cbd 9270 603d 9d5c 37bd cafc a93c
000000b0: 0116 6a3d 3f0f 463c fea4 603d 842a 5dbd
000000c0: 3663 973d eaea 18bd d0a6 5a3b e3fc c33c
000000d0: 927b 01bc defe db3a 33b9 553d f11e 9b3c
000000e0: bec4 463d b32c 47bd 50aa 613d 8137 92bd
000000f0: f6bb 4c3d 0f7d 1d3d 5ab7 8bbc 3e01 bcbc
00000100: fce2 76bc ebb6 5abd 4ee5 9b3d 6acb ed3b
00000110: 6f14 313d 3fc1 bebc dd5a fdbc ce57 f13c
00000120: f5f1 e4bc 685c 9a3c 53cf 593d 7ea5 943d
00000130: c675 1fbd 4c43 1fbd 1444 563d 025e 763d
00000140: 4c20 8f3c 9e3e 073c d2f6 453c 4abc 5bbd
00000150: 8bbc 83bd 6caa 10bd f464 50bd ca18 a83d
00000160: cd13 d0bd bb42 1bbd 63ef a1bd d938 a23d
00000170: d89e 9dbd a87b 6e3c af86 96bd 6e1a 9aba
00000180: 3b3d 993d b60b a3ba 3d9c 34bd 476d 26bd
00000190: ebe4 b33d c423 173d 337e 2a3c 0cfc 39bc
000001a0: 91c4 6a3d 72b8 07bd 361f b5bd 6860 74bb
000001b0: 6abc 853c 3945 993c 8eff 983c 6c94 7a3d
000001c0: a99b 933c 50d1 593d 6fee 12bc 85bc 70bd
000001d0: b254 933b 4739 0bbc ab50 633c 9339 413d
000001e0: f30f 5d3d a3e2 23bd 06ce 1b3c 4eab ad3d
000001f0: 8336 a93d 1703 e3bc 25e6 893c 11b9 babc
00000200: 2792 98bd cfaf a9bd 90bb 00bd db7c 99bd
00000210: ebd4 193d d351 483c aab6 09bd 08b0 47bd
00000220: e0f2 ab3c f371 8abc 022c 13bd 3299 bc3c
00000230: 292d 39bd 8de6 b1ba e49f d2bb 7e3c 79bd
00000240: 297e 16bd d502 87bd 1ece b0bc c525 68bd
00000250: 1307 5c3d 2eef 98bd af94 a7bc 90bd 42bd
00000260: a654 1f3d 4631 96bd d7cd 3dbd 1fed ecbd
00000270: 7068 4a3d e2d3 123d 896d 393d 696e 91bc
00000280: 5211 d23c eb3e c4bc b041 723c 81f7 563c
00000290: 6a4a c0bd 7656 64bd d639 d2bc e8a4 0abd
000002a0: eb13 263d b391 413b 9e89 d4bc d2e4 3236
000002b0: 76dc f8bb 3805 4dbd 2524 3d3d 5b70 faba
000002c0: b642 35bc 282e cb3d 5376 bc3c f45c 3fbd
000002d0: 8677 3d3d 7cc5 0ebd 0e63 92bd 5793 1cbd
000002e0: aa1d cf3c 7b50 7abb 6180 ab3c 01ad 45bc
000002f0: 3176 023c 75db 813d 867b 83bd 5111 0f3d
00000300: 5642 6fbd aa87 0dbd f883 3bbd 9ddc 19bd
00000310: 26b7 28bd 07a3 96bd e973 c0bb b589 1139
00000320: cb9f 0dbd 0198 80bd 79bf 8cbd 41ae 933a
00000330: ffe3 cc3d 9bed 45bd d638 273d e6a2 7b3c
00000340: 49aa a13b 1145 5c3d 874a 41bd 81d3 6bbb
00000350: 12f0 133d bedb 223d 4407 523d 1766 723d
00000360: 6316 563d 5f5f 3b3a 17e4 d23c 292c 63bd
00000370: f4f7 a13c fc1c e03b a765 1e3c 1ebd 2f3c
00000380: cee3 82bd dd07 4e3d e326 b6bd 218f 9abd
00000390: 5f53 ec3c 8637 2ebd 781d 03bd e994 9d3c
000003a0: c826 d83b 3b03 783d 9d6c 99bd 2a7c 9d3c
000003b0: 1f3c 52bc ed4f ab3d e4f9 a23d 4d5f 51bc
000003c0: 29b8 ee3c 6e08 e9bc ec8e c23c eab2 71bd
000003d0: 54e5 31bc 8b32 463d 46b4 6d3d 921d 9439
000003e0: 6f33 3bbd 7afd 503d c875 65bc 6681 9c3c
000003f0: 9345 10ba 9cf8 123d 6e5b 883d 984a adbd

fc1.bias f4 [120]
0.0023518691 -0.02176913 -0.03828845 0.06848225 -0.06974325 0.00027800084 -0.04087575 0.016218238
-0.052002244 0.02335009 -0.015972711 -0.026274847 -0.048248723 -0.01153646 0.030297404 -0.03934825
0.012288943 -0.02321963 0.00843014 0.06115497 -0.011296641 -0.0013345861 0.04395854 0.007903451
0.08424671 0.015283525 0.049165435 -0.04400749 0.040746007 -0.08216491 0.02273839 0.0035415485
0.028771076 0.0005983021 -0.0134710595 0.054688442 -0.0013176525 0.06626405 0.08624613 0.011716052
-0.09127125 -0.002131694 0.057858244 0.01699784 0.016398394 -0.028866036 -0.022106482 -0.011557738
-0.041088868 0.040393565 -0.047734022 -0.030608559 -0.061985273 0.055184837 0.061064698 -0.0030511415
-0.047140345 -0.002692788 0.091909595 0.0437246 0.04003081 -0.035778396 0.053025562 0.052363854
0.07425862 -0.027909158 -0.06381238 0.03287103 0.065361425 0.025127951 -0.012145707 -0.0415903
-0.018441048 0.023454309 -0.061882954 0.013847962 -0.0032712335 0.06818407 -0.03541794 0.014960824
-0.046131793 0.0003523144 0.08801202 0.0090761585 -0.045530308 -0.053446867 -0.029294163 0.017029352
0.07201724 -0.043210696 0.07013518 0.01998675 -0.021517392 -0.02939983 0.044839274 0.0035167579
-0.05425489 -0.022411825 -0.027130278 0.0054184315 -0.0020041426 -0.016682884 -0.025865251 -0.06021528
0.019661974 0.06804655 -0.02480687 0.009886273 0.02315497 0.09617107 0.050680254 -0.008397017
0.009203994 -0.06627936 -0.029690947 -0.031128585 0.04185926 0.027240133 -0.0075835087 -0.0796289
00000000: d121 1a3b 2d55 b2bc 5ad4 1cbd 6c40 8c3d
00000010: 8dd5 8ebd a4c0 9139 556d 27bd 1cdc 843c
00000020: 4e00 55bd b048 bf3c 34d9 82bc 593e d7bc
00000030: 74a0 45bd 6c03 3dbc 4332 f83c a12b 21bd
00000040: 9057 493c 1837 bebc 921e 0a3c a27d 7a3d
00000050: 8c15 39bc 47ed aeba df0d 343d 7a7d 013c
00000060: 8a89 ac3d c067 7a3c b261 493d 3341 34bd
00000070: 49e5 263d 1446 a8bd dc45 ba3c 5319 683b
00000080: 52b1 eb3c 60d7 1c3a b8b5 5cbc fd00 603d
00000090: 15b5 acba 72b5 873d d0a1 b03d aff4 3f3c
000000a0: 6cec babd e4b3 0bbb c4fc 6c3d 0e3f 8b3c
000000b0: ed55 863c 7778 ecbc a718 b5bc ab5c 3dbc
000000c0: cd4c 28bd b973 253d c084 43bd cdbe fabc
000000d0: 45e4 7dbd 7f09 623d fa1e 7a3d a9f5 47bb
000000e0: 3c16 41bd 7c79 30bb 193b bc3d 9118 333d
000000f0: 59f7 233d 5e8c 12bd 5531 593d 7b7b 563d
00000100: e714 983d bfa1 e4bc 11b0 82bd c6a3 063d
00000110: 36dc 853d 22d9 cd3c cafe 46bc 975a 2abd
00000120: ae11 97bc 4023 c03c fb78 7dbd 90e2 623c
00000130: 3162 56bb 17a4 8b3d 6712 11bd 3e1e 753c
00000140: b1f4 3cbd d7b6 b839 a53f b43d 2bb4 143c
00000150: fd7d 3abd 1aeb 5abd 50fa efbc 2481 8b3c
00000160: c67d 933d b3fd 30bd 09a3 8f3d 41bb a33c
00000170: 3e45 b0bc ead7 f0bc 63a9 373d 6879 663b
00000180: 603a 5ebd 0199 b7bc 5140 debc 198d b13b
00000190: ef57 03bb 8baa 88bc 5de3 d3bc 4ca4 76bd
000001a0: 2612 a13c fd5b 8b3d c737 cbbc 09fa 213c
000001b0: 7eaf bd3c 57f5 c43d 1996 4f3d a493 09bc
000001c0: 59cc 163c 79bd 87bd 6e3a f3bc 6001 ffbc
000001d0: 9e74 2b3d b326 df3c 157f f8bb 7a14 a3bd

fc2.weight f4 [84, 120]
0.008222621 0.088746734 0.026875978 0.098019816 0.044796877 0.13012128 -0.06968357 0.020481506
-0.122749254 -0.03341772 -0.03782214 0.0043538855 -0.004960228 0.032015808 -0.09557762 0.03274387
0.061155185 -0.04759283 0.011899925 0.08905188 0.09451189 -0.08674415 0.070935376 -0.027742477
0.028722636 0.062099792 0.0018996745 0.081747256 0.016147442 0.021736724 0.017588789 0.045536347
0.0017398664 -0.006445447 -0.04016469 0.082406454 0.0038465708 -0.08758418 -0.11082997 -0.06090223
0.038742434 -0.05664253 -0.013146767 -0.04238549 0.05614066 0.026614567 -0.0048536807 0.0053305556
-0.053888135 -0.064076565 0.01566474 -0.013105064 -0.051343974 0.09602794 0.065301456 0.014533344
-0.06999921 -0.07198164 -0.030837197 0.030968238 -0.0012307713 -0.06777137 -0.08920007 0.020846099
0.044344846 -0.027314372 0.036231108 -0.011647571 -0.12137176 -0.07517006 0.07343278 0.01538103
-0.02508805 -0.046696983 0.009853195 -0.017180791 0.029195666 -0.023972765 0.0721398 -0.017566796
0.078919075 -0.016800473 -0.10007321 -0.005885651 -0.027721291 0.07961443 0.036371607 -0.026408993
-0.084404826 -0.00313266 -0.009603564 0.07170337 0.026553495 -0.076604 0.06845989 0.00919627
-0.0023555977 -0.013255801 0.04410452 0.09433309 -0.0073030326 -0.029124929 -0.046554677 0.034846503
-0.06411781 0.06378284 -0.07730389 -0.028540617 -0.043399844 0.094315626 0.031027876 0.04191014
0.05082652 -0.025506107 -0.06680893 -0.02705745 0.08137851 0.053365584 -0.07919541 0.123681605
0.05271347 -0.08553493 0.046612527 0.001586558 0.058026966 0.07134342 0.1412633 0.113162525
-0.021752745 -0.059370153 -0.022206727 0.004549429 0.009055114 0.08230198 -0.0048213513 0.1608704
-0.0075304094 -0.012086807 -0.08778843 0.08431672 0.0011132495 0.029185375 0.033267893 0.064372696
-0.14081153 0.059448704 0.082621194 -0.003046361 0.11360566 0.048322175 0.03476946 0.027178584
-0.05472234 -0.024488812 0.1027172 0.027796142 0.022289963 0.003387037 -0.086593576 -0.0464904
0.03361489 0.11900577 0.059337705 -0.0068875784 0.07409378 0.03815691 0.06510118 -0.043419972
-0.079702176 0.0016726202 -0.07683001 -0.08574835 0.010690257 0.009591506 0.07848694 0.09971314
-0.06688032 -0.041146077 0.014942219 -0.056758557 -0.06323738 -0.06906464 -0.033164106 0.15134215
0.020161143 0.033124786 -0.021945108 -0.0242142 -0.06388868 -0.056601293 0.027702067 -0.08821047
-0.05955263 0.1555513 -0.01881397 0.005078913 0.024397554 0.13675997 -0.04742123 -0.016262611
-0.044814628 -0.007986916 0.0022944864 0.056691993 0.009669894 -0.07341282 0.05204795 0.032372486
0.12648258 -0.020448381 -0.058407966 -0.03789674 0.07898293 -0.086363085 0.037373327 0.0771431
-0.046016667 -0.15279354 -0.027090631 0.042922672 -0.041583963 -0.048235886 -0.05405542 -0.05509416
-0.012116311 0.018998403 0.09201753 -0.05109648 0.031337272 0.03621654 0.06321919 0.026195232
-0.09115229 0.009562939 0.09381235 0.05957065 -0.03483544 -0.004506436 0.03454392 -0.015028517
0.046258364 -0.13996819 0.10223503 0.031365093 -0.071403325 0.076725125 -0.024088614 -0.12448072
-0.123529226 -0.06746303 0.023723034 0.07857042 0.04009076 -0.125246 0.15872677 -0.0053664017
00000000: 2cb8 063c d9c0 b53d 032b dc3c 9dbe c83d
00000010: ee7c 373d 833e 053e 42b6 8ebd d5c8 a73c
00000020: f663 fbbd 05e1 08bd 63eb 1abd 0aab 8e3b
00000030: 6989 a2bb 0223 033d 33be c3bd 701e 063d
00000040: dc7d 7a3d b3f0 42bd e7f7 423c d560 b63d
00000050: 738f c13d eba6 b1bd 9146 913d 3144 e3bc
00000060: bc4b eb3c 5a5c 7e3d 80fe f83a 1b6b a73d
00000070: a447 843c 3711 b23c 5d16 903c 5284 3a3d
00000080: 3b0c e43a 5434 d3bb bb83 24bd b7c4 a83d
00000090: c016 7c3b 565f b3bd d3fa e2bd 9e74 79bd
000000a0: 63b0 1e3d ff01 68bd 8a65 57bc 689c 2dbd
000000b0: c0f3 653d cb06 da3c a00b 9fbb f1ab ae3b
000000c0: ceb9 5cbd 933a 83bd 5753 803c 9fb6 56bc
000000d0: 0f4e 52bd 4caa c43d c5bc 853d 431d 6e3c
000000e0: bf5b 8fbd 1c6b 93bd 4a9e fcbc 1ab1 fd3c
000000f0: d551 a1ba b7cb 8abd 87ae b6bd 70c5 aa3c
00000100: f1a2 353d 64c2 dfbc 1267 143d 74d5 3ebc
00000110: c291 f8bd c3f2 99bd ed63 963d b700 7c3c
00000120: 7485 cdbc 5645 3fbd 4c6f 213c bbbe 8cbc
00000130: c02b ef3c 8862 c4bc 08be 933d 3ee8 8fbc
00000140: 53a0 a13d 25a1 89bc 2ff3 ccbd 6bdc c0bb
00000150: c317 e3bc e40c a33d 65fa 143d ac57 d8bc
00000160: 70dc acbd 504d 4dbb 4458 1dbc 37d9 923d
00000170: b786 d93c 8fe2 9cbd b334 8c3d f4ab 163c
00000180: 5f60 1abb dc2e 59bc f1a6 343d b531 c13d
00000190: 474e efbb 6797 eebc 1eb0 3ebd 35bb 0e3d
000001a0: 3350 83bd 94a0 823d 8051 9ebd 03ce e9bc
000001b0: 09c4 31bd 8d28 c13d 2c2e fe3c f8a9 2b3d
000001c0: 782f 503d 2ff2 d0bc 1fd3 88bd 96a7 ddbc
000001d0: c7a9 a63d df95 5a3d 3431 a2bd c84c fd3d
000001e0: 14ea 573d f02c afbd c7ec 3e3d 0df4 cf3a
000001f0: afad 6d3d 801c 923d 54a7 103e c1c1 e73d
00000200: d032 b2bc 1e2e 73bd e2ea b5bc 6013 953b
00000210: e75b 143c f18d a83d 6dfc 9dbb 36bb 243e
00000220: a7c1 f6bb be07 46bc 6cca b3bd 3fae ac3d
00000230: 74ea 913a 2b16 ef3c ea43 083d d5d5 833d
00000240: e630 10be 7c80 733d 4d35 a93d 75a5 47bb
00000250: 16aa e83d 79ed 453d 6c6a 0e3d 9fa5 de3c
00000260: 8824 60bd c39c c8bc 655d d23d bcb4 e33c
00000270: 7199 b63c 0df9 5d3b f957 b1bd b86c 3ebd
00000280: c4af 093d 4cb9 f33d 180c 733d 32b1 e1bb
00000290: 7bbe 973d 6c4a 1c3d c453 853d 24d9 31bd
000002a0: e53a a3bd d23b db3a 0d59 9dbd d59c afbd
000002b0: 3026 2f3c b125 1d3c c3bd a03d 6736 cc3d
000002c0: 8df8 88bd ca88 28bd 35d0 743c a97b 68bd
000002d0: 9982 81bd c371 8dbd 16d7 07bd 70f9 1a3e
000002e0: fb28 a53c dbad 073d 3ac6 b3bc dc5c c6bc
000002f0: 11d8 82bd c2d6 67bd 72ef e23c b1a7 b4bd
00000300: 75ed 73bd d748 1f3e c11f 9abc 036d a63b
00000310: 61dd c73c ce0a 0c3e c33c 42bd 2b39 85bc
00000320: 8b8f 37bd 8edb 02bc 185f 163b dd35 683d
00000330: 7a6e 1e3c 7659 96bd 3b30 553d 0399 043d
00000340: a684 013e 5d83 a7bc 313d 6fbd 9d39 1bbd
00000350: cdc1 a13d 21df b0bd c614 193d 34fd 9d3d
00000360: f97b 3cbd e975 1cbe 2ced ddbc afcf 2f3d
00000370: f253 2abd fe92 45bd 3769 5dbd 6aaa 61bd
00000380: 7e83 46bc 8aa2 9b3c b073 bc3d 8b4a 51bd
00000390: 835b 003d cb57 143d 1079 813d 6297 d63c
000003a0: 0dae babd e0ad 1c3c b020 c03d 5b00 743d
000003b0: 9baf 0ebd baaa 93bb ed7d 0d3d 2b3a 76bc
000003c0: 6979 3d3d d253 0fbe 9960 d13d af78 003d
000003d0: e83b 92bd 1022 9d3d 7c55 c5bc bfef febd
000003e0: e4fc fcbd 0f2a 8abd cf56 c23c 87e9 a03d
000003f0: 3536 243d 7d40 00be 4589 223e a4d8 afbb

fc2.bias f4 [84]
0.080195464 -0.007589133 0.07433596 -0.0064932765 0.023556186 0.0454964 -0.0061392207 -0.048143122
-0.064033695 0.06977435 0.07809629 -0.049087 0.11989295 0.04157553 0.09827473 0.07134035
0.046400756 0.042237785 -0.034850173 0.070509456 0.025188427 0.032054007 0.03701074 0.16334765
-0.024760457 -0.079854526 0.02084525 -0.07556331 0.17494999 0.06715521 -0.08584457 0.13637426
0.101040155 -0.01966376 0.06668033 0.020185914 0.06035498 -0.035732094 -0.05278291 -0.03874888
-0.018603314 0.1020565 -0.028713826 0.022848113 0.1798676 0.057853855 -0.049784318 0.077536605
-0.023140652 0.11032453 -0.044381056 0.064774506 0.18294577 0.009911972 -0.018427826 -0.04376012
-0.012815719 0.0118682925 -0.023413844 -0.0030094865 0.12321447 -0.00969964 -0.006139788 -0.08468061
0.0006793118 0.055275384 -0.07183079 -0.08519237 0.050791692 0.10019252 0.038889565 0.18874149
-0.021781802 0.010922696 -0.077618554 0.03879426 0.16336818 -0.028569512 -0.054903626 -0.016705412
0.08341189 -0.080590114 0.06163429 -0.0021905925
00000000: 853d a43d 43ae f8bb 743d 983d 8dc5 d4bb
00000010: e7f8 c03c 6f5a 3a3d 842b c9bb b931 45bd
00000020: 1924 83bd dbe5 8e3d f3f0 9f3d 730f 49bd
00000030: 6f8a f53d 1a4b 2a3d 4344 c93d e41a 923d
00000040: b80e 3e3d 8701 2d3d 0ebf 0ebd 4367 903d
00000050: f657 ce3c 104b 033d 9398 173d 9b44 273e
00000060: 71d6 cabc c58a a3bd a8c3 aa3c f0c0 9abd
00000070: 1726 333e ac88 893d 47cf afbd b2a5 0b3e
00000080: 24ee ce3d e515 a1bc b28f 883d ee5c a53c
00000090: c936 773d d15b 12bd e532 58bd 25b7 1ebd
000000a0: fa65 98bc 0003 d13d 4239 ebbc f72b bb3c
000000b0: 362f 383e 2af8 6c3d a4ea 4bbd 83cb 9e3d
000000c0: 7791 bdbc d4f1 e13d e9c8 35bd 7fa8 843d
000000d0: 2356 3b3e d365 223c f4f5 96bc d03d 33bd
000000e0: 05f9 51bc 3a73 423c 64ce bfbc ce3a 45bb
000000f0: de57 fc3d 3deb 1ebc 4630 c9bb 076d adbd
00000100: d813 323a 7168 623d 051c 93bd 5679 aebd
00000110: f30a 503d bc31 cd3d aa4a 1f3d 7345 413e
00000120: c06f b2bc 1cf5 323c 7af6 9ebd bbe6 1e3d
00000130: fd49 273e 9c0a eabc a0e2 60bd cad9 88bc
00000140: dad3 aa3d 6e0c a5bd 3d74 7c3d 0b90 0fbb

fc3.weight f4 [10, 84]
0.021496875 0.23096941 -0.054874223 -0.1220464 -0.05959342 -0.12128565 0.07803135 0.059683673
-0.08143587 0.09950149 -0.02185602 -0.11253474 0.07873011 -0.06612725 -0.15249366 -0.10616536
-0.04539091 -0.06323698 -0.0039344104 0.05928411 0.09551492 -0.07935215 0.20500892 -0.10273704
0.015581777 -0.09916572 0.0040482045 -0.042279974 -0.13351342 0.03734518 0.052191846 0.20919217
0.1805587 -0.04045641 -0.069929205 0.20570843 -0.090849005 0.20005652 0.12251494 -0.055737253
-0.012188569 -0.12693216 -0.09361854 -0.1322174 0.004607915 0.12350093 0.07689194 0.05140378
-0.04545188 -0.05685882 -0.12755384 0.39703435 0.44037452 -0.0067744325 -0.06752375 0.051132664
-0.02670025 -0.115576275 -0.12255374 0.27279043 0.03662898 0.07978315 -0.3130504 0.088293985
0.29313904 0.13814247 -0.00073848583 0.27576482 -0.0155357495 0.029274626 0.059208967 0.18364652
0.2502853 -0.11365222 0.0536827 0.009787986 0.108205006 0.032576744 0.023479814 -0.05955857
0.33013216 0.009548529 -0.028006062 -0.2562065 0.03420609 0.087031305 0.38391125 0.020232247
0.068402216 -0.18335396 0.33270493 0.118032426 -0.025810538 -0.16104037 0.09536329 0.014850408
-0.007275646 -0.013456234 -0.17757353 -0.2167506 -0.021012926 0.038732316 -0.046724048 -0.14744069
-0.13085231 -0.019190697 -0.16842285 0.031261135 -0.12262937 -0.06060953 0.015436391 -0.07548199
-0.34812984 -0.15400425 -0.042005908 -0.18180223 0.024340214 -0.06885073 0.029130464 0.08579544
-0.0394634 -0.046127256 -0.02931066 -0.049234446 0.06659168 -0.20878944 -0.10921004 0.15115333
0.17385027 -0.097562894 -0.087683365 -0.21082808 0.018566787 -0.23649913 -0.110705584 0.42383683
-0.29100007 -0.08982659 0.43088996 0.00021096438 0.3959093 -0.14653851 0.1537317 -0.15981431
-0.28615212 -0.0382668 -0.30470312 0.14696 0.09337281 0.07904981 -0.051200915 -0.054572526
-0.054312237 -0.25716537 -0.025869284 0.047069084 0.0030952694 -0.018559508 0.12209935 -0.10381997
-0.15257591 -0.019853655 -0.20212221 0.13512875 -0.24691544 0.00013951556 0.1343054 -0.21279858
-0.1538592 0.0072945743 -0.005720299 -0.14145474 -0.06579333 -0.04970752 -0.0002501552 -0.012634071
0.054469574 0.28951666 -0.042209744 0.05865718 -0.066215165 -0.105370894 0.119188115 0.07281747
0.21482562 0.011096722 0.07340786 0.13178661 0.26490986 -0.111792296 0.26545128 0.5698536
-0.02795826 0.093310334 -0.058325473 0.113423645 0.09422179 0.014577828 -0.07551763 0.08211629
-0.16278975 -0.097248375 0.097340085 0.17613372 -0.02654422 0.00165254 -0.07395286 0.013438616
0.11962534 -0.05268887 -0.014863148 -0.17930058 0.21263456 -0.033318408 -0.0069464063 0.17946203
-0.21462576 -0.12099104 -0.11813958 -0.20137353 0.48025027 0.049076844 -0.10361776 0.04223009
0.15330376 0.11554637 0.24137552 -0.28503332 -0.17128047 -0.10065187 0.37224445 -0.029609261
-0.105877414 -0.093544975 -0.08019133 -0.17106843 0.15382662 0.10978628 -0.03866406 0.21247244
0.20228381 -0.04900697 -0.40141422 -0.106429726 -0.08849142 0.0641936 -0.17648797 -0.25546303
0.017065212 0.052698728 -0.09489839 -0.11450675 -0.17732093 -0.037090156 -0.2766974 -0.058793064
00000000: 371a b03c 3f83 6c3e cbc3 60bd 77f3 f9bd
00000010: 3b18 74bd 9c64 f8bd e7ce 9f3d de76 743d
00000020: d9c7 a6bd 70c7 cb3d 650b b3bc 9d78 e6bd
00000030: 403d a13d b96d 87bd 4c27 1cbe 396d d9bd
00000040: d2eb 39bd 6482 81bd 3aec 80bb e5d3 723d
00000050: 549d c33d 6183 a2bd dced 513e cc67 d2bd
00000060: b64a 7f3c 6617 cbbd cda6 843b c42d 2dbd
00000070: beb7 08be 42f7 183d 1ec7 553d 7936 563e
00000080: 61e4 383e 9fb5 25bd 0b37 8fbd 3ba5 523e
00000090: 0b0f babd 9edb 4c3e 1de9 fa3d bf4c 64bd
000000a0: 90b2 47bc 81fa 01be 14bb bfbd 0064 07be
000000b0: fefd 963b 0eee fc3d 8579 9d3d c58c 523d
000000c0: c02b 3abd cbe4 68bd 799d 02be 1648 cb3e
000000d0: c578 e13e 0ffc ddbb e449 8abd 7c70 513d
000000e0: 7cba dabc 41b3 ecbd 75fd fabd 30ab 8b3e
000000f0: 4508 163d 5965 a33d 2448 a0be 7ad3 b43d
00000100: 5216 963e 3875 0d3e f296 41ba 0c31 8d3e
00000110: a889 7ebc 57d1 ef3c 1a85 723d d50d 3c3e
00000120: 6525 803e 7fc2 e8bd 64e2 5b3d ca5d 203c
00000130: 969a dd3d 316f 053d bd58 c03c b0f3 73bd
00000140: 1507 a93e 6f71 1c3c f86c e5bc 802d 83be
00000150: af1b 0c3d 783d b23d 0490 c43e 19be a53c
00000160: 7616 8c3d 24c1 3bbe 4d58 aa3e fcba f13d
00000170: 9f70 d3bc c4e7 24be d44d c33d 204f 733c
00000180: 8b68 eebb 8977 5cbc d6d5 35be dff3 5dbe
00000190: 4d23 acbc c7a5 1e3d b761 3fbd b1fa 16be
000001a0: 26fe 05be cf35 9dbc 0a77 2cbe ad0b 003d
000001b0: 1b25 fbbd b341 78bd ebe8 7c3c 4d96 9abd
000001c0: 133e b2be 4ab3 1dbe 630e 2cbd 5d2a 3abe
000001d0: 2165 c73c 9d01 8dbd 03a3 ee3c 85b5 af3d
000001e0: 60a4 21bd efef 3cbd e91c f0bc 0faa 49bd
000001f0: 3861 883d e6cc 55be 83a9 dfbd f0c7 1a3e
00000200: ce05 323e 0ecf c7bd 5693 b3bd 51e3 57be
00000210: 6019 983c d42c 72be 9cb9 e2bd 2401 d93e
00000220: f6fd 94be 01f7 b7bd 9c9d dc3e 5236 5d39
00000230: a0b4 ca3e 310e 16be d86b 1d3e 5da6 23be
00000240: 8882 92be a6bd 1cbd 0c02 9cbe af7c 163e
00000250: 3e3a bf3d dee4 a13d 0db8 51bd 7187 5fbd
00000260: 8276 5ebd 2eab 83be d2eb d3bc 83cb 403d
00000270: 01da 4a3b 1c0a 98bc 390f fa3d 909f d4bd
00000280: dc3c 1cbe 22a4 a2bc 20f9 4ebe 315f 0a3e
00000290: 67d7 7cbe ec4a 1239 5b87 093e dfe7 59be
000002a0: 448d 1dbe 5307 ef3b 5971 bbbb 83d9 10be
000002b0: a7be 86bd 1d9a 4bbd 4327 83b9 22ff 4ebc
000002c0: 7d1b 5f3d 873b 943e 20e4 2cbd 8342 703d
000002d0: d19b 87bd b2cc d7bd e618 f43d 5321 953d
000002e0: 3ffb 5b3e 07cf 353c dc56 963d 12f3 063e
000002f0: 44a2 873e 5cf3 e4bd 3be9 873e ede1 113f
00000300: b908 e5bc 7d19 bf3d b1e6 6ebd a84a e83d
00000310: 5bf7 c03d d8d7 6e3c fda8 9abd 962c a83d
00000320: 5bb2 26be 282a c7bd 3d5a c73d 665c 343e
00000330: 4473 d9bc 0b9a d83a 9974 97bd a42d 5c3c
00000340: 21fe f43d 49d0 57bd 9084 73bc 929a 37be
00000350: e0bc 593e e278 08bd ae9e e3bb e5c4 373e
00000360: dbc6 5bbe 26ca f7bd 2af3 f1bd dd34 4ebe
00000370: 5de3 f53e cd04 493d 8c35 d4bd 75f9 2c3d
00000380: a9fb 1c3e 93a3 ec3d 252b 773e e3ef 91be
00000390: 2664 2fbe 9122 cebd d396 be3e 1f8f f2bc
000003a0: 42d6 d8bd 8294 bfbd 5a3b a4bd 902c 2fbe
000003b0: ba84 1d3e a1d7 e03d 355e 1ebd 6092 593e
000003c0: 7d23 4f3e 88bb 48bd 2a86 cdbe d4f7 d9bd
000003d0: fd3a b5bd ef77 833d 43b9 34be 0dcc 82be
000003e0: 58cc 8b3c 9fda 573d 165a c2bd 8482 eabd
000003f0: 9e93 35be d9eb 17bd 48ab 8dbe ffd0 70bd

fc3.bias f4 [10]
0.00911151 -0.22168753 0.2208767 0.001894398 -0.096341684 -0.2239238 0.38378227 0.0074627604
0.23876677 -0.14795344
00000000: 7148 153c 0e02 63be 802d 623e 734d f83a
00000010: ca4e c5bd 484c 65be 1c7f c43e 2c8a f43b
00000020: 477f 743e 1b81 17be
